Imputation model and feature construction/Model A1.pth (torch, 15585 bytes, 6 tensors)

net.0.weight f8 [13, 52]
000000 00 00 00 e0 71 5f b2 3f 00 00 00 00 16 f9 a6 3f
       0.0717688724398613 0.04486912488937378
000010 00 00 00 80 83 29 bc 3f 00 00 00 40 76 1a a4 3f
       0.11000844836235046 0.039264388382434845
000020 00 00 00 a0 b3 81 a2 3f 00 00 00 a0 2c 33 b1 3f
       0.03614579513669014 0.0671871080994606
000030 00 00 00 c0 bf 5e ad 3f 00 00 00 80 5d c8 b0 3f
       0.05736350268125534 0.0655573308467865
000040 00 00 00 00 9a 90 8d 3f 00 00 00 c0 fb df be 3f
       0.014435961842536926 0.1206052154302597
000050 00 00 00 80 db 65 b5 bf 00 00 00 40 ea 50 98 3f
       -0.0835854709148407 0.02374616637825966
000060 00 00 00 a0 39 89 b5 bf 00 00 00 c0 98 2a 91 bf
       -0.08412513881921768 -0.01676405593752861
000070 00 00 00 e0 64 94 a9 3f 00 00 00 c0 cf aa ce bf
       0.04996028169989586 -0.23958775401115417
000080 00 00 00 40 0e f4 c6 3f 00 00 00 60 34 42 92 bf
       0.1793229877948761 -0.017830675467848778
000090 00 00 00 e0 ab d2 c5 3f 00 00 00 c0 a2 fc a7 3f
       0.17049168050289154 0.0468493327498436
0000a0 00 00 00 20 97 86 b7 3f 00 00 00 00 78 4b b5 bf
       0.09189743548631668 -0.08318281173706055
0000b0 00 00 00 80 a7 e3 bc 3f 00 00 00 60 3b ce bc bf
       0.11284872889518738 -0.11252184957265854
0000c0 00 00 00 40 d2 8a 73 bf 00 00 00 a0 f8 57 b4 3f
       -0.004771062172949314 0.07946733385324478
0000d0 00 00 00 a0 dd e2 b2 bf 00 00 00 a0 f6 f0 d4 bf
       -0.07377419620752335 -0.3272072374820709
0000e0 00 00 00 00 24 f7 c0 bf 00 00 00 40 40 fc c8 bf
       -0.13254213333129883 -0.19519808888435364
0000f0 00 00 00 e0 e8 c0 c5 bf 00 00 00 80 5d 58 c3 3f
       -0.16994963586330414 0.151134192943573
000100 00 00 00 40 ee 2c bc 3f 00 00 00 e0 77 26 c4 bf
       0.11006058752536774 -0.1574239581823349
000110 00 00 00 80 47 47 be bf 00 00 00 60 fe 52 b6 3f
       -0.11827513575553894 0.08720388263463974
000120 00 00 00 e0 e9 fa c9 3f 00 00 00 80 4d e5 c6 3f
       0.2029697746038437 0.17887276411056519
000130 00 00 00 a0 b6 08 b1 3f 00 00 00 c0 bb 75 ac bf
       0.0665392056107521 -0.05558573454618454
000140 00 00 00 40 c3 3b 94 bf 00 00 00 00 22 e9 8d 3f
       -0.019759226590394974 0.014604821801185608
000150 00 00 00 60 38 5e b3 bf 00 00 00 a0 18 f7 a9 bf
       -0.07565643638372421 -0.05071331933140755
000160 00 00 00 80 18 eb b9 3f 00 00 00 20 82 48 99 3f
       0.1012435257434845 0.02469065971672535
000170 00 00 00 20 b4 3c 89 3f 00 00 00 00 24 fd b7 3f
       0.012322814203798771 0.09370636940002441
000180 00 00 00 c0 f8 d5 b0 3f 00 00 00 c0 e1 49 b6 bf
       0.06576494872570038 -0.08706484735012054
000190 00 00 00 e0 c4 f6 c5 3f 00 00 00 20 58 34 6e bf
       0.1715932935476303 -0.0036870690528303385
0001a0 00 00 00 c0 1b 10 d0 bf 00 00 00 80 ec 52 c7 bf
       -0.25098317861557007 -0.18221813440322876
0001b0 00 00 00 e0 44 f4 d8 bf 00 00 00 80 5f 7e bc bf
       -0.3899089992046356 -0.11130329966545105
0001c0 00 00 00 80 5d 69 bc bf 00 00 00 20 a6 35 cf bf
       -0.110982745885849 -0.24382473528385162
0001d0 00 00 00 e0 9f 31 a1 3f 00 00 00 60 68 4f c8 bf
       0.03358172997832298 -0.18992333114147186
0001e0 00 00 00 e0 ab f5 b8 bf 00 00 00 c0 92 50 b2 bf
       -0.09749864786863327 -0.07154195010662079
0001f0 00 00 00 20 1e 4c 83 bf 00 00 00 40 5d 20 8c bf
       -0.009422526694834232 -0.013733604922890663
000200 00 00 00 60 dc ed ab bf 00 00 00 80 28 51 d8 3f
       -0.05454910919070244 0.3799535036087036
000210 00 00 00 00 33 a6 b7 bf 00 00 00 c0 65 63 db 3f
       -0.09237974882125854 0.4279417395591736
000220 00 00 00 a0 c1 ee 8d 3f 00 00 00 60 91 1a bc 3f
       0.014615547843277454 0.10978039354085922
000230 00 00 00 00 34 a3 d4 3f 00 00 00 a0 02 76 92 3f
       0.3224611282348633 0.018028298392891884
000240 00 00 00 e0 d2 d2 c7 3f 00 00 00 c0 e4 8b cb 3f
       0.18612132966518402 0.21520671248435974
000250 00 00 00 20 4b 3b d3 3f 00 00 00 20 21 48 c1 3f
       0.300493985414505 0.13501371443271637
000260 00 00 00 c0 d8 3f c2 3f 00 00 00 a0 f9 9b ad bf
       0.14257344603538513 -0.05783062055706978
000270 00 00 00 80 00 a8 a5 bf 00 00 00 20 06 c0 b4 3f
       -0.042297378182411194 0.08105505257844925
000280 00 00 00 80 25 46 b8 bf 00 00 00 c0 96 e5 b7 bf
       -0.09482035040855408 -0.09334699809551239
000290 00 00 00 20 9b a0 b1 3f 00 00 00 c0 72 c9 ac bf
       0.06885690242052078 -0.05622442811727524
0002a0 00 00 00 c0 25 f9 a7 3f 00 00 00 a0 3f 34 a4 3f
       0.046822719275951385 0.03946112468838692
0002b0 00 00 00 c0 5c ee b3 bf 00 00 00 60 e0 c9 b0 bf
       -0.07785587012767792 -0.06558039039373398
0002c0 00 00 00 40 05 b4 92 bf 00 00 00 60 dd e0 9e bf
       -0.018264848738908768 -0.030154665932059288
0002d0 00 00 00 e0 5b 72 a6 3f 00 00 00 80 2b a9 b6 bf
       0.04384123906493187 -0.08851882815361023
0002e0 00 00 00 20 81 48 87 3f 00 00 00 c0 82 d3 7c 3f
       0.011368759907782078 0.007037649862468243
0002f0 00 00 00 00 bc 62 b0 3f 00 00 00 80 65 ca b1 3f
       0.06400656700134277 0.0694945752620697
000300 00 00 00 60 ac c3 c9 3f 00 00 00 a0 de 22 66 bf
       0.20128397643566132 -0.002702174009755254
000310 00 00 00 a0 8e 0a bf 3f 00 00 00 40 5e a2 c6 bf
       0.12125483900308609 -0.17683008313179016
000320 00 00 00 20 76 d5 a3 3f 00 00 00 a0 19 79 b9 bf
       0.038737956434488297 -0.09950409084558487
000330 00 00 00 60 97 3a bc bf 00 00 00 a0 1e 42 c3 3f
       -0.11026903241872787 0.1504553109407425
000340 00 00 00 20 d6 32 a3 3f 00 00 00 e0 4f 09 9d bf
       0.037497226148843765 -0.028355835005640984
000350 00 00 00 c0 b7 53 48 3f 00 00 00 c0 a0 23 ba 3f
       0.0007424018112942576 0.10210613906383514
000360 00 00 00 00 3f ac b8 3f 00 00 00 40 b1 12 ad 3f
       0.09637826681137085 0.05678323656320572
000370 00 00 00 00 b4 26 b3 3f 00 00 00 20 eb 2d a9 3f
       0.07480931282043457 0.04917845502495766
000380 00 00 00 20 a7 f5 9a bf 00 00 00 80 fe d4 92 3f
       -0.026327716186642647 0.018390633165836334
000390 00 00 00 c0 b2 85 96 3f 00 00 00 a0 b5 42 a7 bf
       0.021994393318891525 -0.045430827885866165
0003a0 00 00 00 a0 a7 96 b6 bf 00 00 00 a0 d4 75 c0 3f
       -0.08823630958795547 0.12859590351581573
0003b0 00 00 00 00 75 8e b8 3f 00 00 00 20 20 30 85 bf
       0.09592372179031372 -0.010345698334276676
0003c0 00 00 00 00 cf aa 94 3f 00 00 00 e0 d9 b7 cb 3f
       0.020182833075523376 0.21654818952083588
0003d0 00 00 00 40 0d cd cb 3f 00 00 00 60 6c 3f cc bf
       0.21719518303871155 -0.22068552672863007
0003e0 00 00 00 40 12 a7 af bf 00 00 00 60 7d 49 a9 3f
       -0.061821527779102325 0.04938880726695061
0003f0 00 00 00 a0 43 00 94 bf 00 00 00 40 f9 3f a3 bf
       -0.019532257691025734 -0.03759745508432388
000400 00 00 00 40 be 4e a7 bf 00 00 00 00 b6 86 b2 3f
       -0.04552263766527176 0.07236802577972412
000410 00 00 00 00 e7 d1 c5 3f 00 00 00 60 3e aa 94 3f
       0.17046821117401123 0.020180677995085716
000420 00 00 00 a0 ad 69 8d 3f 00 00 00 00 d2 34 99 bf
       0.014361721463501453 -0.024615556001663208
000430 00 00 00 80 3b 0d bf 3f 00 00 00 a0 b3 4a c2 3f
       0.12129566073417664 0.14290471374988556
000440 00 00 00 20 ad 89 a1 3f 00 00 00 c0 86 a6 b2 3f
       0.03425351157784462 0.07285349071025848
000450 00 00 00 40 02 cc aa bf 00 00 00 00 6f 23 9d 3f
       -0.05233771353960037 0.028455480933189392
000460 00 00 00 a0 4e be 79 bf 00 00 00 c0 34 b2 92 bf
       -0.006285006646066904 -0.018257927149534225
000470 00 00 00 40 e8 b8 c1 bf 00 00 00 60 94 8e 99 bf
       -0.13845542073249817 -0.024957960471510887
000480 00 00 00 80 d8 0c a9 3f 00 00 00 40 58 de c4 3f
       0.048926129937171936 0.16303542256355286
000490 00 00 00 40 5b 43 d3 3f 00 00 00 c0 b8 02 cd 3f
       0.300986111164093 0.2266455590724945
0004a0 00 00 00 40 e2 91 d1 3f 00 00 00 40 27 a8 ce bf
       0.27452903985977173 -0.23950663208961487
0004b0 00 00 00 e0 0c 56 c7 3f 00 00 00 80 bc 0e d0 bf
       0.18231354653835297 -0.25089943408966064
0004c0 00 00 00 a0 00 14 c2 bf 00 00 00 40 f5 81 a0 3f
       -0.14123542606830597 0.03224150091409683
0004d0 00 00 00 00 8a 64 a3 3f 00 00 00 40 51 36 be 3f
       0.0378764271736145 0.118016317486763
0004e0 00 00 00 60 d2 25 a2 bf 00 00 00 e0 f4 87 a4 3f
       -0.03544480726122856 0.04009976610541344
0004f0 00 00 00 e0 4e d3 92 bf 00 00 00 80 fd 4c 77 bf
       -0.01838420145213604 -0.005688657984137535
000500 00 00 00 40 87 d2 67 bf 00 00 00 00 9c 7a 7a bf
       -0.0029080049134790897 -0.0064645856618881226
000510 00 00 00 60 22 1f a7 3f 00 00 00 a0 73 45 95 3f
       0.04515941068530083 0.020772749558091164
000520 00 00 00 80 fd 9c b4 bf 00 00 00 60 c0 a4 91 bf
       -0.08052048087120056 -0.017230039462447166
000530 00 00 00 00 8a 1a c9 bf 00 00 00 80 2a 10 b1 3f
       -0.196122407913208 0.06665292382240295
000540 00 00 00 00 0b e6 ca bf 00 00 00 40 e3 cc bf 3f
       -0.21014535427093506 0.12422008812427521
000550 00 00 00 80 dd 15 b1 3f 00 00 00 80 b5 03 5f bf
       0.06673988699913025 -0.0018929741345345974
000560 00 00 00 a0 89 ff c6 bf 00 00 00 20 72 77 97 bf
       -0.17967338860034943 -0.022916587069630623
000570 00 00 00 e0 b8 59 b7 3f 00 00 00 20 2f a1 a8 3f
       0.09121280163526535 0.04810473695397377
000580 00 00 00 e0 35 79 b1 3f 00 00 00 a0 15 84 91 bf
       0.06825577467679977 -0.017105424776673317
000590 00 00 00 60 06 f0 b0 bf 00 00 00 a0 e0 85 a1 3f
       -0.06616248935461044 0.034224528819322586
0005a0 00 00 00 80 eb cd ae 3f 00 00 00 80 da ed 7c 3f
       0.06016479432582855 0.007062772288918495
0005b0 00 00 00 20 26 4e c0 3f 00 00 00 00 3c 96 c5 3f
       0.12738491594791412 0.16864728927612305
0005c0 00 00 00 20 d2 c1 a3 bf 00 00 00 40 da 31 c6 3f
       -0.038588110357522964 0.17339637875556946
0005d0 00 00 00 e0 31 59 a0 3f 00 00 00 e0 0a 34 9a 3f
       0.031930502504110336 0.025589151307940483
0005e0 00 00 00 00 0a 09 83 bf 00 00 00 00 87 70 b2 3f
       -0.009294584393501282 0.07202953100204468
0005f0 00 00 00 60 bd ab 61 3f 00 00 00 40 05 23 b5 3f
       0.00215708720497787 0.08256562054157257
000600 00 00 00 a0 6f 01 b2 bf 00 00 00 60 3f d7 9e 3f
       -0.07033441215753555 0.030117979273200035
000610 00 00 00 e0 ad b8 a4 3f 00 00 00 80 01 b3 a5 bf
       0.04047149047255516 -0.04238133132457733
000620 00 00 00 80 dd fb b9 3f 00 00 00 80 6b f4 ab bf
       0.10149940848350525 -0.05459915101528168
000630 00 00 00 40 6e 4c c8 bf 00 00 00 40 7d 46 5c 3f
       -0.18983247876167297 0.00172579032368958
000640 00 00 00 00 48 11 a1 bf 00 00 00 e0 69 64 a8 3f
       -0.033334970474243164 0.0476410947740078
000650 00 00 00 e0 3b 18 b2 bf 00 00 00 c0 27 4f c2 bf
       -0.07068227976560593 -0.14304062724113464
000660 00 00 00 a0 0c bc b6 bf 00 00 00 20 28 4e cc bf
       -0.08880690485239029 -0.22113515436649323
000670 00 00 00 a0 24 37 b1 bf 00 00 00 20 3c 84 bf bf
       -0.0672476664185524 -0.12311149388551712
000680 00 00 00 a0 82 e0 91 3f 00 00 00 80 82 c9 a5 bf
       0.017458001151680946 -0.042553022503852844
000690 00 00 00 60 c1 90 9e bf 00 00 00 e0 17 f5 bd 3f
       -0.02984907291829586 0.11702107638120651
0006a0 00 00 00 e0 40 5a b9 3f 00 00 00 00 be cf a0 bf
       0.0990334078669548 -0.03283494710922241
0006b0 00 00 00 40 f7 2a b6 3f 00 00 00 00 a9 ca a1 bf
       0.08659310638904572 -0.03474929928779602
0006c0 00 00 00 00 d1 fe b9 bf 00 00 00 00 2c 3e 7c 3f
       -0.10154443979263306 0.00689522922039032
0006d0 00 00 00 20 54 66 c6 3f 00 00 00 40 16 bc c8 bf
       0.17499782145023346 -0.1932399570941925
0006e0 00 00 00 20 3a 20 d2 bf 00 00 00 20 99 6d 8f bf
       -0.2832169830799103 -0.015345760621130466
0006f0 00 00 00 c0 eb 3f c0 bf 00 00 00 40 53 e8 b7 3f
       -0.1269507110118866 0.09338875114917755
000700 00 00 00 c0 9e cc b9 bf 00 00 00 a0 97 78 bf 3f
       -0.1007785052061081 0.12293384224176407
000710 00 00 00 60 19 37 b1 3f 00 00 00 80 89 4b bb 3f
       0.06724699586629868 0.10662135481834412
000720 00 00 00 e0 a7 55 ca bf 00 00 00 c0 f6 19 ac bf
       -0.20573900640010834 -0.054885588586330414
000730 00 00 00 e0 33 dd 8f 3f 00 00 00 00 fd b1 b7 3f
       0.015558629296720028 0.09255963563919067
000740 00 00 00 80 bf 80 c6 bf 00 00 00 a0 2b 74 c6 bf
       -0.17580407857894897 -0.17542023956775665
000750 00 00 00 20 c9 73 a4 3f 00 00 00 a0 56 d9 c6 bf
       0.039945874363183975 -0.17850764095783234
000760 00 00 00 80 67 b8 a5 3f 00 00 00 00 1c 6d 9c bf
       0.042422518134117126 -0.027759969234466553
000770 00 00 00 20 49 08 a2 bf 00 00 00 40 eb 59 b4 3f
       -0.0352194644510746 0.07949705421924591
000780 00 00 00 20 23 45 b1 bf 00 00 00 60 e9 2c 8b 3f
       -0.06746120005846024 0.013269255869090557
000790 00 00 00 40 58 90 b3 bf 00 00 00 40 c1 ac b4 bf
       -0.07642127573490143 -0.08076103031635284
0007a0 00 00 00 00 9c f0 ad bf 00 00 00 40 c8 a7 a0 bf
       -0.05847632884979248 -0.032530076801776886
0007b0 00 00 00 60 01 18 c0 bf 00 00 00 80 df 14 9b 3f
       -0.12573258578777313 0.026446811854839325
0007c0 00 00 00 60 08 f6 c0 bf 00 00 00 c0 f0 b2 b9 3f
       -0.13250832259655 0.10038666427135468
0007d0 00 00 00 80 ad f4 98 bf 00 00 00 40 9b dc af 3f
       -0.024370871484279633 0.06222996860742569
0007e0 00 00 00 80 67 f4 b9 3f 00 00 00 a0 9a 04 bc bf
       0.10138556361198425 -0.1094452515244484
0007f0 00 00 00 e0 b4 be a3 bf 00 00 00 00 29 5b ac bf
       -0.038564350455999374 -0.055382996797561646

net.0.bias f8 [13]
000000 00 00 00 40 1a ea f1 3f 00 00 00 a0 31 71 e2 3f
       1.1196539402008057 0.5763176083564758
000010 00 00 00 c0 e9 cb c6 bf 00 00 00 20 98 c4 ef 3f
       -0.1780979335308075 0.9927483201026917
000020 00 00 00 a0 6f 28 f2 3f 00 00 00 60 47 e8 ea 3f
       1.1348720788955688 0.8408543467521667
000030 00 00 00 80 49 0a e8 3f 00 00 00 c0 6a 3e f4 bf
       0.7512557506561279 -1.2652385234832764
000040 00 00 00 80 7e 01 e8 3f 00 00 00 00 2e a6 d8 3f
       0.7501823902130127 0.38514280319213867
000050 00 00 00 40 13 43 f2 3f 00 00 00 e0 72 3e f4 3f
       1.1413757801055908 1.2652462720870972
000060 00 00 00 20 54 6c e7 3f
       0.7319737076759338

net.2.weight f8 [12, 13]
000000 00 00 00 80 33 83 a5 3f 00 00 00 80 9b 3b d3 bf
       0.042016610503196716 -0.3005131483078003
000010 00 00 00 60 c6 71 b3 3f 00 00 00 e0 41 fd d9 3f
       0.07595481723546982 0.4060826003551483
000020 00 00 00 40 f2 0f 82 bf 00 00 00 a0 75 19 bc 3f
       -0.008819477632641792 0.1097634807229042
000030 00 00 00 e0 96 a6 94 bf 00 00 00 a0 24 f7 b0 bf
       -0.020166737958788872 -0.0662711039185524
000040 00 00 00 a0 45 d7 a5 bf 00 00 00 c0 78 a4 d2 3f
       -0.04265801981091499 0.2912885546684265
000050 00 00 00 c0 dd 97 d5 3f 00 00 00 60 28 be cb bf
       0.33739417791366577 -0.2167406529188156
000060 00 00 00 20 c0 b0 d8 3f 00 00 00 a0 77 c1 cd 3f
       0.3857879936695099 0.2324666529893875
000070 00 00 00 c0 39 f7 e2 bf 00 00 00 c0 c5 f7 a1 bf
       -0.5926789045333862 -0.03509347885847092
000080 00 00 00 60 c3 e9 a6 bf 00 00 00 60 0c 39 c7 3f
       -0.044752221554517746 0.1814284771680832
000090 00 00 00 40 bb 12 c6 3f 00 00 00 e0 d6 cb b3 3f
       0.17244663834571838 0.07732909172773361
0000a0 00 00 00 e0 db 02 a3 3f 00 00 00 80 b7 54 d0 bf
       0.037131186574697495 -0.25517070293426514
0000b0 00 00 00 60 18 b2 d3 bf 00 00 00 e0 e8 fb c4 bf
       -0.3077450692653656 -0.16393767297267914
0000c0 00 00 00 e0 1a 11 aa 3f 00 00 00 40 47 b6 ae 3f
       0.05091175064444542 0.05998442322015762
0000d0 00 00 00 40 eb 26 d3 bf 00 00 00 60 ad 5e da bf
       -0.29925042390823364 -0.41202864050865173
0000e0 00 00 00 e0 53 11 d0 3f 00 00 00 00 b2 38 ba bf
       0.25105759501457214 -0.10242760181427002
0000f0 00 00 00 c0 aa 84 ab 3f 00 00 00 40 4b a1 bd bf
       0.0537465438246727 -0.11574240028858185
000100 00 00 00 a0 f8 3a a4 3f 00 00 00 a0 6c a1 cc bf
       0.03951241448521614 -0.22367627918720245
000110 00 00 00 80 6c 4b e0 3f 00 00 00 80 01 b8 ab 3f
       0.509207010269165 0.05413822829723358
000120 00 00 00 c0 6e 9f c3 3f 00 00 00 00 c7 95 4e 3f
       0.15330299735069275 0.0009333821944892406
000130 00 00 00 c0 9d 0b af bf 00 00 00 e0 d4 2f a2 bf
       -0.06063549965620041 -0.03552117571234703
000140 00 00 00 40 3a 26 c0 bf 00 00 00 00 31 42 ca 3f
       -0.12616661190986633 0.205145001411438
000150 00 00 00 40 b3 ba d1 3f 00 00 00 a0 71 01 ce 3f
       0.27702027559280396 0.2344190627336502
000160 00 00 00 80 43 04 d5 3f 00 00 00 c0 fc 95 c4 bf
       0.32838523387908936 -0.16082724928855896
000170 00 00 00 e0 11 3d cb bf 00 00 00 c0 8f 35 c5 3f
       -0.21280120313167572 0.16569706797599792
000180 00 00 00 a0 2b 75 c6 3f 00 00 00 40 cd 85 c8 3f
       0.17545075714588165 0.1915833055973053
000190 00 00 00 a0 12 4d ae 3f 00 00 00 c0 ac 3a d0 bf
       0.05918176844716072 -0.2535812258720398
0001a0 00 00 00 80 4a 45 a9 bf 00 00 00 e0 f2 f9 b5 3f
       -0.04935677349567413 0.08584516495466232
0001b0 00 00 00 e0 53 3c 9e 3f 00 00 00 40 46 79 b8 3f
       0.029527006670832634 0.09560050070285797
0001c0 00 00 00 a0 fb d7 d2 3f 00 00 00 20 d2 33 c8 3f
       0.29443255066871643 0.18908144533634186
0001d0 00 00 00 a0 95 81 d8 3f 00 00 00 a0 38 40 af bf
       0.38290920853614807 -0.0610368438065052
0001e0 00 00 00 80 8b b5 a5 3f 00 00 00 e0 eb 30 ae 3f
       0.042400702834129333 0.0589669905602932
0001f0 00 00 00 a0 c5 32 d5 bf 00 00 00 c0 24 20 dd bf
       -0.33122387528419495 -0.455086886882782
000200 00 00 00 60 48 17 cd 3f 00 00 00 80 fd 98 ba bf
       0.22727303206920624 -0.10389694571495056
000210 00 00 00 20 8e fa b3 bf 00 00 00 00 1c 88 c6 bf
       -0.0780419185757637 -0.17602872848510742
000220 00 00 00 a0 36 9e 75 bf 00 00 00 c0 9d 67 e5 3f
       -0.005277837160974741 0.6688984632492065
000230 00 00 00 20 5a 89 c3 3f 00 00 00 a0 e3 e0 ae 3f
       0.15262915194034576 0.0603095181286335
000240 00 00 00 c0 a7 84 c7 3f 00 00 00 40 21 d0 d7 3f
       0.18373581767082214 0.3720782399177551
000250 00 00 00 40 2a 76 b3 3f 00 00 00 40 39 bb ce 3f
       0.07602180540561676 0.24008861184120178
000260 00 00 00 80 3f b4 d0 3f 00 00 00 60 6b b7 cc 3f
       0.26100146770477295 0.22434751689434052
000270 00 00 00 20 79 8a bf bf 00 00 00 a0 17 93 95 bf
       -0.12320668250322342 -0.02106892503798008
000280 00 00 00 60 0c ec ce bf 00 00 00 20 09 18 c5 bf
       -0.2415786236524582 -0.16479600965976715
000290 00 00 00 e0 1e fe c8 bf 00 00 00 20 53 0c e1 3f
       -0.19525514543056488 0.5327544808387756
0002a0 00 00 00 a0 e9 7f af 3f 00 00 00 e0 d0 b2 cc 3f
       0.061522770673036575 0.22420702874660492
0002b0 00 00 00 40 72 23 d4 3f 00 00 00 00 7e 01 d0 3f
       0.31466346979141235 0.2500910758972168
0002c0 00 00 00 e0 96 35 8c 3f 00 00 00 a0 04 04 c5 3f
       0.013774088583886623 0.16418512165546417
0002d0 00 00 00 c0 b9 66 ba 3f 00 00 00 c0 a8 77 cd 3f
       0.10312996804714203 0.2302142083644867
0002e0 00 00 00 c0 2c 67 92 bf 00 00 00 80 6f 8c d2 3f
       -0.0179717056453228 0.2898215055465698
0002f0 00 00 00 80 2c dd c2 bf 00 00 00 00 3f 73 be 3f
       -0.14737468957901 0.11894601583480835
000300 00 00 00 40 68 58 c0 3f 00 00 00 40 80 09 a8 bf
       0.12769797444343567 -0.04694748669862747
000310 00 00 00 e0 8e 4e d4 bf 00 00 00 80 7b 21 d5 3f
       -0.31729480624198914 0.33016860485076904
000320 00 00 00 20 c4 e7 d1 3f 00 00 00 a0 c9 bb bf bf
       0.2797708809375763 -0.12395916134119034
000330 00 00 00 20 b5 83 d2 3f 00 00 00 c0 cc fa da 3f
       0.28928878903388977 0.42155760526657104
000340 00 00 00 20 24 d3 b7 3f 00 00 00 80 5d 4a 90 3f
       0.09306550770998001 0.015908680856227875
000350 00 00 00 c0 71 58 97 3f 00 00 00 00 de 53 d4 bf
       0.0227983258664608 -0.31761884689331055
000360 00 00 00 a0 5a a8 c0 3f 00 00 00 40 b3 ba ab bf
       0.13013775646686554 -0.054158784449100494
000370 00 00 00 c0 5e ad c2 bf 00 00 00 80 76 ea 84 bf
       -0.14591583609580994 -0.01021282747387886
000380 00 00 00 e0 19 9a ad bf 00 00 00 80 d6 1d d5 3f
       -0.05781632289290428 0.3299461603164673
000390 00 00 00 e0 cb 4d c2 3f 00 00 00 00 26 e8 ca bf
       0.14299915730953217 -0.21020960807800293
0003a0 00 00 00 20 c0 9e a8 3f 00 00 00 40 7e e3 e3 3f
       0.048086170107126236 0.6215201616287231
0003b0 00 00 00 e0 59 d3 d0 bf 00 00 00 00 f1 f4 89 bf
       -0.26289984583854675 -0.012674219906330109
0003c0 00 00 00 e0 64 c4 c2 3f 00 00 00 60 9e 1d c4 3f
       0.14661847054958344 0.1571538895368576
0003d0 00 00 00 60 84 4b c2 3f 00 00 00 80 7a ac cc 3f
       0.14292959868907928 0.22401362657546997
0003e0 00 00 00 40 97 72 9c 3f 00 00 00 c0 e2 be d2 3f
       0.02778087928891182 0.2929007411003113
0003f0 00 00 00 80 00 c2 d7 3f 00 00 00 80 a9 00 b5 bf
       0.37121593952178955 -0.08204135298728943
000400 00 00 00 00 ee b8 ab 3f 00 00 00 00 c7 72 c5 bf
       0.05414527654647827 -0.1675652265548706
000410 00 00 00 60 d4 7f d1 3f 00 00 00 c0 68 f0 c3 3f
       0.2734270989894867 0.15577420592308044
000420 00 00 00 e0 ce bf be 3f 00 00 00 20 6a c8 b5 bf
       0.12011425942182541 -0.08508933335542679
000430 00 00 00 40 3f 58 69 3f 00 00 00 c0 85 85 c3 3f
       0.003093837294727564 0.15251228213310242
000440 00 00 00 e0 69 f4 ab 3f 00 00 00 60 67 76 c0 bf
       0.0545991025865078 -0.1286133974790573
000450 00 00 00 60 ed 49 c9 3f 00 00 00 e0 4a 90 cb bf
       0.19756858050823212 -0.21534095704555511
000460 00 00 00 e0 7d 72 db 3f 00 00 00 60 8d 81 d0 bf
       0.4288630187511444 -0.2579072415828705
000470 00 00 00 c0 0e 8c 6d 3f 00 00 00 80 e6 ee c4 3f
       0.0036068237386643887 0.16354066133499146
000480 00 00 00 a0 17 ed c2 bf 00 00 00 a0 ff ad a9 3f
       -0.14786048233509064 0.050155628472566605
000490 00 00 00 a0 41 4e d0 bf 00 00 00 60 cc 04 ca 3f
       -0.25477638840675354 0.20327143371105194
0004a0 00 00 00 c0 cc 00 c2 3f 00 00 00 00 47 fc e2 3f
       0.14064940810203552 0.5932955741882324
0004b0 00 00 00 80 35 5c b5 bf 00 00 00 60 4c 6a df bf
       -0.08343824744224548 -0.4908629357814789
0004c0 00 00 00 a0 3d 29 c8 3f 00 00 00 a0 b1 bb d1 3f
       0.18875856697559357 0.2770809233188629
0004d0 00 00 00 e0 41 9c c0 3f 00 00 00 20 3d 2c 8b 3f
       0.12976859509944916 0.013267972506582737

net.2.bias f8 [12]
000000 00 00 00 40 2c 79 b4 3f 00 00 00 40 ee d9 da 3f
       0.07997395098209381 0.41955143213272095
000010 00 00 00 60 2c 96 e1 3f 00 00 00 80 d0 be d2 3f
       0.5495817065238953 0.2928963899612427
000020 00 00 00 00 01 50 d2 3f 00 00 00 80 13 68 ca bf
       0.2861330509185791 -0.20630115270614624
000030 00 00 00 60 55 e2 e6 3f 00 00 00 a0 bc 15 be bf
       0.7151286005973816 -0.11751917749643326
000040 00 00 00 40 f5 01 ea 3f 00 00 00 00 97 45 c1 3f
       0.8127390146255493 0.13493621349334717
000050 00 00 00 c0 53 41 aa bf 00 00 00 e0 89 42 b1 3f
       -0.05127965658903122 0.06742154806852341

net.4.weight f8 [52, 12]
000000 00 00 00 20 da 66 da 3f 00 00 00 80 82 3f e5 3f
       0.41252759099006653 0.6640026569366455
000010 00 00 00 80 5c 59 c6 3f 00 00 00 00 32 ca a8 bf
       0.17460209131240845 -0.048417627811431885
000020 00 00 00 60 6d c1 bb 3f 00 00 00 80 5a f9 c8 bf
       0.10842021554708481 -0.19510966539382935
000030 00 00 00 20 fa 42 8e 3f 00 00 00 a0 7f 36 dc 3f
       0.01477618608623743 0.44082632660865784
000040 00 00 00 20 af 61 c9 bf 00 00 00 00 c1 92 b6 bf
       -0.19829358160495758 -0.08817678689956665
000050 00 00 00 40 7b 2d e0 3f 00 00 00 c0 4d b6 e1 3f
       0.5055519342422485 0.5535038709640503
000060 00 00 00 00 fb 13 da 3f 00 00 00 20 d0 95 e9 3f
       0.4074695110321045 0.799537718296051
000070 00 00 00 a0 4c e5 de 3f 00 00 00 20 40 8b ca bf
       0.48274531960487366 -0.20737458765506744
000080 00 00 00 e0 ca 58 c1 bf 00 00 00 c0 92 5b d6 bf
       -0.13552223145961761 -0.34933918714523315
000090 00 00 00 20 31 aa 59 3f 00 00 00 80 cc a1 c4 3f
       0.0015664558159187436 0.16118770837783813
0000a0 00 00 00 60 ad 1c e3 bf 00 00 00 80 80 3e cd bf
       -0.5972506403923035 -0.22846990823745728
0000b0 00 00 00 40 4c d6 dd 3f 00 00 00 c0 8d 95 d8 3f
       0.4662047028541565 0.38412803411483765
0000c0 00 00 00 20 74 6c d5 3f 00 00 00 e0 8f 5e e5 3f
       0.33474448323249817 0.6677932143211365
0000d0 00 00 00 e0 bf 7d e9 3f 00 00 00 a0 e8 51 b0 bf
       0.7966002821922302 -0.06374982744455338
0000e0 00 00 00 a0 82 f8 d0 3f 00 00 00 40 97 9c e1 bf
       0.26516786217689514 -0.5503650903701782
0000f0 00 00 00 e0 03 fd d1 bf 00 00 00 c0 ee f7 d3 3f
       -0.281067818403244 0.3120076060295105
000100 00 00 00 40 a1 8b e9 3f 00 00 00 e0 6b d7 93 3f
       0.7982946634292603 0.01937645487487316
000110 00 00 00 80 11 c3 cc 3f 00 00 00 00 ef c3 b6 bf
       0.22470301389694214 -0.08892720937728882
000120 00 00 00 20 7d 2b d9 3f 00 00 00 20 92 ea e4 3f
       0.3932793438434601 0.6536341309547424
000130 00 00 00 80 e3 7e da 3f 00 00 00 e0 74 52 59 3f
       0.4139946699142456 0.0015455380780622363
000140 00 00 00 40 b8 5f b8 bf 00 00 00 c0 37 0a d6 bf
       -0.09521056711673737 -0.3443736433982849
000150 00 00 00 80 44 f9 cd bf 00 00 00 40 f5 d3 d1 3f
       -0.23416954278945923 0.27856189012527466
000160 00 00 00 80 fd 97 d9 3f 00 00 00 a0 83 24 bc bf
       0.39990174770355225 -0.10993216186761856
000170 00 00 00 20 53 2a cf 3f 00 00 00 e0 25 3a d4 3f
       0.2434791475534439 0.31604906916618347
000180 00 00 00 00 8a 47 d9 3f 00 00 00 c0 80 db e4 3f
       0.394991397857666 0.6517947912216187
000190 00 00 00 60 ea 89 da 3f 00 00 00 e0 28 0a 12 3f
       0.41466769576072693 6.881594163132831e-05
0001a0 00 00 00 c0 04 42 b9 bf 00 00 00 00 d9 08 d6 bf
       -0.09866361320018768 -0.34429001808166504
0001b0 00 00 00 60 f8 30 ce bf 00 00 00 20 ab d7 d1 3f
       -0.23586945235729218 0.27878835797309875
0001c0 00 00 00 80 08 ab d9 3f 00 00 00 60 fd ef bb bf
       0.40106403827667236 -0.10913070291280746
0001d0 00 00 00 60 a6 5b cf 3f 00 00 00 e0 04 39 d4 3f
       0.244984433054924 0.3159801661968231
0001e0 00 00 00 c0 b0 d7 db 3f 00 00 00 00 60 15 df 3f
       0.4350396990776062 0.48567962646484375
0001f0 00 00 00 00 b5 3a e1 3f 00 00 00 60 1f a3 d6 3f
       0.5384163856506348 0.3537062108516693
000200 00 00 00 20 b7 76 d7 bf 00 00 00 e0 2a ac e0 bf
       -0.366620808839798 -0.521016538143158
000210 00 00 00 40 55 30 e7 bf 00 00 00 60 70 af d7 3f
       -0.7246500253677368 0.37008294463157654
000220 00 00 00 40 c8 64 a5 3f 00 00 00 40 47 c7 da 3f
       0.041784532368183136 0.418412983417511
000230 00 00 00 60 e1 2f e3 3f 00 00 00 20 2b 43 db bf
       0.59959477186203 -0.42597463726997375
000240 00 00 00 20 5c 0f b1 bf 00 00 00 c0 b3 0b f0 bf
       -0.06664062291383743 -1.002856969833374
000250 00 00 00 a0 99 87 e0 bf 00 00 00 80 a4 93 bb 3f
       -0.516552746295929 0.10772159695625305
000260 00 00 00 e0 74 4d dc bf 00 00 00 a0 e4 c1 e7 3f
       -0.4422275722026825 0.7424185872077942
000270 00 00 00 20 11 6d a4 3f 00 00 00 00 59 b4 d2 bf
       0.03989461436867714 -0.29225754737854004
000280 00 00 00 a0 fa 89 da bf 00 00 00 c0 8e 4a d0 3f
       -0.41467157006263733 0.25455063581466675
000290 00 00 00 20 71 d3 cb bf 00 00 00 c0 1f eb 9c 3f
       -0.21739019453525543 0.02824067696928978
0002a0 00 00 00 80 17 8e e0 3f 00 00 00 80 d5 0f b9 3f
       0.5173451900482178 0.09789785742759705
0002b0 00 00 00 80 60 c0 ef 3f 00 00 00 a0 d3 00 e3 3f
       0.9922335147857666 0.5938509106636047
0002c0 00 00 00 c0 08 a4 e2 bf 00 00 00 a0 5a bc e2 bf
       -0.5825237035751343 -0.5854924321174622
0002d0 00 00 00 40 ea 61 e9 bf 00 00 00 00 32 b7 d5 bf
       -0.7932025194168091 -0.3393063545227051
0002e0 00 00 00 c0 d7 af 77 bf 00 00 00 00 64 d3 d5 3f
       -0.005782931111752987 0.34102725982666016
0002f0 00 00 00 40 3e 7c dd 3f 00 00 00 20 10 ae cf bf
       0.4607082009315491 -0.247499480843544
000300 00 00 00 c0 79 5c c6 3f 00 00 00 20 77 28 e7 3f
       0.1746971309185028 0.723689615726471
000310 00 00 00 80 51 89 d3 3f 00 00 00 80 04 5b c8 bf
       0.3052562475204468 -0.19027763605117798
000320 00 00 00 a0 1b 0b 9f 3f 00 00 00 20 7b b9 e7 bf
       0.030315810814499855 -0.7413917183876038
000330 00 00 00 60 12 cf e1 3f 00 00 00 e0 1f 99 b2 bf
       0.556527316570282 -0.07264899462461472
000340 00 00 00 a0 0f 13 e1 3f 00 00 00 00 57 22 ca bf
       0.5335767865180969 -0.20417296886444092
000350 00 00 00 40 28 94 87 3f 00 00 00 20 4a cf eb 3f
       0.011513056233525276 0.8690539002418518
000360 00 00 00 c0 ac f7 c4 3f 00 00 00 40 fa d8 eb 3f
       0.1638084352016449 0.8702365159988403
000370 00 00 00 e0 55 61 a0 bf 00 00 00 60 c5 2d c3 3f
       -0.03199261054396629 0.14983431994915009
000380 00 00 00 60 8e 16 d3 bf 00 00 00 e0 eb 74 d5 bf
       -0.2982517182826996 -0.3352613151073456
000390 00 00 00 40 c4 ba d5 bf 00 00 00 e0 57 3a d7 3f
       -0.3395243287086487 0.36293599009513855
0003a0 00 00 00 60 92 36 cb 3f 00 00 00 a0 d3 fc d1 bf
       0.212602898478508 -0.28105631470680237
0003b0 00 00 00 c0 a0 1d d9 3f 00 00 00 e0 67 31 d4 3f
       0.3924333453178406 0.3155154883861542
0003c0 00 00 00 c0 98 c4 c9 bf 00 00 00 20 c0 79 d2 3f
       -0.20131215453147888 0.2886810600757599
0003d0 00 00 00 a0 2d 78 c6 3f 00 00 00 00 f2 58 c7 3f
       0.17554254829883575 0.1824018955230713
0003e0 00 00 00 00 17 bd d9 bf 00 00 00 20 5d e8 d6 3f
       -0.40216612815856934 0.35793235898017883
0003f0 00 00 00 40 77 3a d4 3f 00 00 00 00 83 61 a0 bf
       0.31606847047805786 -0.03199395537376404
000400 00 00 00 40 00 e7 e5 3f 00 00 00 00 4b b0 e4 bf
       0.6844483613967896 -0.6465201377868652
000410 00 00 00 80 5e 00 e1 3f 00 00 00 00 96 75 a1 bf
       0.5312950611114502 -0.034100234508514404
000420 00 00 00 80 83 be 47 bf 00 00 00 40 ad 74 b3 bf
       -0.0007246152963489294 -0.07599909603595734
000430 00 00 00 60 ac 02 be 3f 00 00 00 e0 ea 42 df bf
       0.11722829192876816 -0.4884593188762665
000440 00 00 00 a0 2e 03 d5 3f 00 00 00 40 ba 01 ec bf
       0.3283192217350006 -0.8752108812332153
000450 00 00 00 00 f7 57 d1 3f 00 00 00 40 53 c9 c8 3f
       0.2709939479827881 0.1936439573764801
000460 00 00 00 40 55 7b d8 bf 00 00 00 a0 8c d7 e1 3f
       -0.3825276494026184 0.5575621724128723
000470 00 00 00 60 73 51 d2 bf 00 00 00 20 19 7e be bf
       -0.28622135519981384 -0.11911160498857498
000480 00 00 00 40 31 05 c8 bf 00 00 00 80 07 84 d0 3f
       -0.18765845894813538 0.25805842876434326
000490 00 00 00 80 e8 67 d8 3f 00 00 00 c0 c8 9a d9 bf
       0.3813420534133911 -0.40007227659225464
0004a0 00 00 00 40 c7 b0 b3 bf 00 00 00 40 d1 34 e4 bf
       -0.0769161731004715 -0.631447434425354
0004b0 00 00 00 a0 19 b7 e9 3f 00 00 00 e0 97 76 c6 3f
       0.803601086139679 0.17549417912960052
0004c0 00 00 00 c0 82 5f d9 3f 00 00 00 c0 d0 7d ca bf
       0.39645451307296753 -0.20696458220481873
0004d0 00 00 00 c0 43 cf d2 3f 00 00 00 40 ed 1a d0 bf
       0.29390043020248413 -0.25164347887039185
0004e0 00 00 00 20 ea 07 d8 3f 00 00 00 a0 78 b9 dc bf
       0.37548306584358215 -0.4488202631473541
0004f0 00 00 00 e0 ca d0 af bf 00 00 00 c0 22 ed 9e 3f
       -0.062139835208654404 0.03020147606730461
000500 00 00 00 a0 ed 43 cc 3f 00 00 00 80 85 e1 bc bf
       0.2208230048418045 -0.11281618475914001
000510 00 00 00 a0 98 2c b0 bf 00 00 00 a0 af 0b e0 3f
       -0.06318048387765884 0.5014265179634094
000520 00 00 00 00 b7 11 da bf 00 00 00 e0 05 75 d4 bf
       -0.4073312282562256 -0.3196425139904022
000530 00 00 00 a0 db 53 db 3f 00 00 00 00 86 e7 df 3f
       0.4269932806491852 0.4985060691833496
000540 00 00 00 40 77 dc d6 3f 00 00 00 20 07 1d c6 bf
       0.35720616579055786 -0.17276085913181305
000550 00 00 00 40 db 1a c1 3f 00 00 00 a0 a7 17 d1 bf
       0.133632093667984 -0.2670687735080719
000560 00 00 00 c0 c7 34 bc bf 00 00 00 60 f3 dd bf bf
       -0.11018036305904388 -0.12448044866323471
000570 00 00 00 a0 d7 e0 af bf 00 00 00 a0 38 18 d4 3f
       -0.06226228550076485 0.3139783442020416
000580 00 00 00 00 ed a1 ed bf 00 00 00 80 f6 ed dc bf
       -0.9260163307189941 -0.45202410221099854
000590 00 00 00 40 8c f1 e2 3f 00 00 00 e0 7a 03 d9 3f
       0.591985821723938 0.3908374011516571
0005a0 00 00 00 00 8e 53 d7 3f 00 00 00 e0 11 f8 d1 bf
       0.3644747734069824 -0.28076598048210144
0005b0 00 00 00 60 79 84 d2 3f 00 00 00 20 19 2d 94 3f
       0.28933557868003845 0.01970328576862812
0005c0 00 00 00 00 07 f6 da 3f 00 00 00 a0 09 c5 d4 bf
       0.4212663173675537 -0.32452622056007385
0005d0 00 00 00 00 6f d2 d7 bf 00 00 00 80 3b e2 e0 3f
       -0.3722188472747803 0.5276162624359131
0005e0 00 00 00 80 72 95 c7 3f 00 00 00 40 57 e5 d8 bf
       0.18424826860427856 -0.3889978528022766
0005f0 00 00 00 e0 4a a9 c2 3f 00 00 00 c0 85 cf bc bf
       0.14579139649868011 -0.11254154145717621
000600 00 00 00 20 a6 96 cd 3f 00 00 00 60 86 cf d0 bf
       0.23115994036197662 -0.2626663148403168
000610 00 00 00 00 bb 1f a3 3f 00 00 00 a0 cf ad 90 bf
       0.03735145926475525 -0.016288036480545998
000620 00 00 00 40 60 17 c5 3f 00 00 00 c0 a2 43 cb bf
       0.16477587819099426 -0.2130015790462494
000630 00 00 00 00 71 d3 cc bf 00 00 00 00 04 f0 d8 3f
       -0.22520267963409424 0.3896493911743164
000640 00 00 00 e0 46 6e b9 3f 00 00 00 80 69 52 d9 bf
       0.09933894127607346 -0.3956550359725952
000650 00 00 00 c0 06 90 d2 3f 00 00 00 a0 66 d0 d9 3f
       0.29004067182540894 0.4033447802066803
000660 00 00 00 00 76 dd cd 3f 00 00 00 00 61 e6 d0 bf
       0.233320951461792 -0.26406121253967285
000670 00 00 00 e0 46 cf a2 3f 00 00 00 20 d2 6a 8c bf
       0.03673764690756798 -0.013875619508326054
000680 00 00 00 00 39 19 c5 3f 00 00 00 a0 be 78 cb bf
       0.1648322343826294 -0.21462233364582062
000690 00 00 00 00 14 f1 cc bf 00 00 00 00 28 d3 d8 3f
       -0.22610712051391602 0.38788795471191406
0006a0 00 00 00 00 3b aa ba 3f 00 00 00 a0 8d 3e d9 bf
       0.10416001081466675 -0.39444294571876526
0006b0 00 00 00 e0 6d 22 d2 3f 00 00 00 00 7d c8 d9 3f
       0.2833513915538788 0.4028618335723877
0006c0 00 00 00 60 a2 20 cc 3f 00 00 00 60 8c 76 d3 bf
       0.2197459191083908 -0.3041106164455414
0006d0 00 00 00 60 62 59 c4 bf 00 00 00 e0 26 9f df 3f
       -0.15897779166698456 0.4940888583660126
0006e0 00 00 00 60 86 dd ad bf 00 00 00 a0 74 a9 d9 bf
       -0.0583307258784771 -0.4009677469730377
0006f0 00 00 00 c0 6e f1 da bf 00 00 00 60 93 56 e0 3f
       -0.4209858775138855 0.5105683207511902
000700 00 00 00 80 3d ae c8 bf 00 00 00 c0 75 80 c4 3f
       -0.19281738996505737 0.1601702868938446
000710 00 00 00 a0 83 4c e8 3f 00 00 00 c0 8b a9 c3 bf
       0.7593401074409485 -0.15361163020133972
000720 00 00 00 a0 52 1d c1 bf 00 00 00 c0 5a ca 9e bf
       -0.13370735943317413 -0.03006879612803459
000730 00 00 00 20 bb 7f cd bf 00 00 00 a0 6b 86 c2 3f
       -0.2304605394601822 0.1447271853685379
000740 00 00 00 e0 fc e6 d2 bf 00 00 00 80 27 65 dc 3f
       -0.2953483760356903 0.4436739683151245
000750 00 00 00 60 2a 78 d0 3f 00 00 00 c0 c5 4e de bf
       0.25733432173728943 -0.47355788946151733
000760 00 00 00 00 fc bd c9 bf 00 00 00 20 0e d8 de 3f
       -0.2011103630065918 0.4819369614124298
000770 00 00 00 20 fb 3a d2 bf 00 00 00 e0 eb 3c c1 3f
       -0.2848499119281769 0.1346716731786728
000780 00 00 00 60 49 cf c1 3f 00 00 00 60 56 3a e1 bf
       0.1391383856534958 -0.5383712649345398
000790 00 00 00 00 fd 36 c5 3f 00 00 00 80 1f 36 ea 3f
       0.16574060916900635 0.8191068172454834
0007a0 00 00 00 c0 1f b0 cf bf 00 00 00 00 84 f8 e0 bf
       -0.24756237864494324 -0.5303363800048828
0007b0 00 00 00 c0 9b a1 df bf 00 00 00 00 20 6a cd bf
       -0.49423879384994507 -0.22980117797851562
0007c0 00 00 00 c0 0a b8 c0 bf 00 00 00 40 fc a7 c0 3f
       -0.13061651587486267 0.13012650609016418
0007d0 00 00 00 20 7d e0 e1 3f 00 00 00 40 da 7c b6 3f
       0.5586534142494202 0.08784259855747223
0007e0 00 00 00 20 16 c2 d4 3f 00 00 00 a0 bb b9 db bf
       0.3243460953235626 -0.43321123719215393
0007f0 00 00 00 40 89 61 97 3f 00 00 00 80 dc d8 d2 bf
       0.02283300831913948 -0.2944861650466919

net.4.bias f8 [52]
000000 00 00 00 20 c0 83 f9 bf 00 00 00 80 0b c1 a5 bf
       -1.5946656465530396 -0.04248844087123871
000010 00 00 00 00 ce 5a d6 bf 00 00 00 c0 ab 43 ea bf
       -0.3492922782897949 -0.8207606077194214
000020 00 00 00 a0 c3 35 ea bf 00 00 00 c0 25 6b e7 bf
       -0.8190630078315735 -0.7318295240402222
000030 00 00 00 a0 fc c1 a7 bf 00 00 00 a0 9f 4f 90 3f
       -0.04640187695622444 0.015928739681839943
000040 00 00 00 c0 9f 02 df bf 00 00 00 e0 7b 3f bd bf
       -0.4845351576805115 -0.11424993723630905
000050 00 00 00 60 ff 0b ec bf 00 00 00 00 20 37 f1 3f
       -0.8764645457267761 1.075958251953125
000060 00 00 00 20 7a 5c d3 3f 00 00 00 20 7f 4f ea bf
       0.3025193512439728 -0.8222041726112366
000070 00 00 00 60 55 10 de 3f 00 00 00 60 53 fa d2 3f
       0.4697469174861908 0.2965286672115326
000080 00 00 00 60 43 6e c8 bf 00 00 00 20 65 5f c8 bf
       -0.19086496531963348 -0.19041122496128082
000090 00 00 00 a0 30 c9 e6 bf 00 00 00 80 04 a8 e2 bf
       -0.7120593190193176 -0.5830099582672119
0000a0 00 00 00 e0 51 b5 bb 3f 00 00 00 40 15 96 a6 bf
       0.10823547095060349 -0.04411379247903824
0000b0 00 00 00 20 7a 0a e9 3f 00 00 00 c0 7b e0 e4 bf
       0.7825289368629456 -0.6524027585983276
0000c0 00 00 00 20 39 cd e5 3f 00 00 00 e0 f1 86 d2 3f
       0.6813016533851624 0.2894863784313202
0000d0 00 00 00 60 ac a1 d8 bf 00 00 00 00 f9 96 e4 3f
       -0.38486775755882263 0.6434292793273926
0000e0 00 00 00 80 ed bf df 3f 00 00 00 e0 f5 8b a1 3f
       0.4960893392562866 0.034270938485860825
0000f0 00 00 00 80 e7 a1 a2 3f 00 00 00 00 82 5e e7 bf
       0.036391481757164 -0.7302865982055664
000100 00 00 00 a0 a6 a9 e3 bf 00 00 00 00 73 a8 c9 3f
       -0.6144593358039856 0.20045316219329834
000110 00 00 00 80 3c 69 b4 3f 00 00 00 00 a2 15 ea 3f
       0.07973077893257141 0.8151407241821289
000120 00 00 00 c0 5d 87 d7 bf 00 00 00 00 c9 b5 be 3f
       -0.36763709783554077 0.11996132135391235
000130 00 00 00 e0 64 4c b4 3f 00 00 00 60 15 fe d2 bf
       0.07929068058729172 -0.2967580258846283
000140 00 00 00 40 38 b9 e2 3f 00 00 00 60 54 5e d2 3f
       0.5851098299026489 0.2870074212551117
000150 00 00 00 20 1b 64 b4 3f 00 00 00 c0 68 d9 b4 3f
       0.07965249568223953 0.08144240081310272
000160 00 00 00 20 7c 4a e3 bf 00 00 00 40 ad a1 e0 bf
       -0.602842390537262 -0.5197359323501587
000170 00 00 00 60 22 43 d9 3f 00 00 00 c0 15 44 a6 bf
       0.3947225511074066 -0.04348819702863693
000180 00 00 00 00 db 55 e5 3f 00 00 00 00 de c9 a3 bf
       0.6667304039001465 -0.03864949941635132
000190 00 00 00 40 3e dd dc bf 00 00 00 e0 62 53 c5 bf
       -0.4510036110877991 -0.16660724580287933
